…
I0924 12:17:15.298159  3086 net.cpp:294] The NetState phase (0) differed from the phase (1) specified by a rule in layer data
I0924 12:17:15.298329  3086 net.cpp:51] Initializing net from parameters: 
name: "RenderForCNN"
state {
  phase: TRAIN
  level: 0
  stage: ""
}
layer {
  name: "data"
  type: "Data"
  top: "data"
  top: "label"
  include {
    phase: TRAIN
  }
  transform_param {
    mirror: false
    crop_size: 256
    mean_file: "/home/cad/disk/linux/RenderForCNN-master/train/imagenet_mean.binaryproto"
  }
  data_param {
    source: "/media/cad/Elements1/viewpoint/img_train_lmdb"
    batch_size: 192
    backend: LMDB
  }
}
layer {
  name: "conv1"
  type: "Convolution"
  bottom: "data"
  top: "conv1"
  param {
    lr_mult: 0
    decay_mult: 0
  }
  param {
    lr_mult: 0
    decay_mult: 0
  }
  convolution_param {
    num_output: 96
    kernel_size: 11
    stride: 4
  }
}
layer {
  name: "relu1"
  type: "ReLU"
  bottom: "conv1"
  top: "conv1"
}
layer {
  name: "pool1"
  type: "Pooling"
  bottom: "conv1"
  top: "pool1"
  pooling_param {
    pool: MAX
    kernel_size: 3
    stride: 2
  }
}
layer {
  name: "norm1"
  type: "LRN"
  bottom: "pool1"
  top: "norm1"
  lrn_param {
    local_size: 5
    alpha: 0.0001
    beta: 0.75
  }
}
layer {
  name: "conv2"
  type: "Convolution"
  bottom: "norm1"
  top: "conv2"
  param {
    lr_mult: 0
    decay_mult: 0
  }
  param {
    lr_mult: 0
    decay_mult: 0
  }
  convolution_param {
    num_output: 256
    pad: 2
    kernel_size: 5
    group: 2
  }
}
layer {
  name: "relu2"
  type: "ReLU"
  bottom: "conv2"
  top: "conv2"
}
layer {
  name: "pool2"
  type: "Pooling"
  bottom: "conv2"
  top: "pool2"
  pooling_param {
    pool: MAX
    kernel_size: 3
    stride: 2
  }
}
layer {
  name: "norm2"
  type: "LRN"
  bottom: "pool2"
  top: "norm2"
  lrn_param {
    local_size: 5
    alpha: 0.0001
    beta: 0.75
  }
}
layer {
  name: "conv3"
  type: "Convolution"
  bottom: "norm2"
  top: "conv3"
  param {
    lr_mult: 0
    decay_mult: 0
  }
  param {
    lr_mult: 0
    decay_mult: 0
  }
  convolution_param {
    num_output: 384
    pad: 1
    kernel_size: 3
  }
}
layer {
  name: "relu3"
  type: "ReLU"
  bottom: "conv3"
  top: "conv3"
}
layer {
  name: "conv4"
  type: "Convolution"
  bottom: "conv3"
  top: "conv4"
  param {
    lr_mult: 1
    decay_mult: 1
  }
  param {
    lr_mult: 1
    decay_mult: 0
  }
  convolution_param {
    num_output: 384
    pad: 1
    kernel_size: 3
    group: 2
  }
}
layer {
  name: "relu4"
  type: "ReLU"
  bottom: "conv4"
  top: "conv4"
}
layer {
  name: "conv5"
  type: "Convolution"
  bottom: "conv4"
  top: "conv5"
  param {
    lr_mult: 1
    decay_mult: 1
  }
  param {
    lr_mult: 1
    decay_mult: 0
  }
  convolution_param {
    num_output: 256
    pad: 1
    kernel_size: 3
    group: 2
  }
}
layer {
  name: "relu5"
  type: "ReLU"
  bottom: "conv5"
  top: "conv5"
}
layer {
  name: "pool5"
  type: "Pooling"
  bottom: "conv5"
  top: "pool5"
  pooling_param {
    pool: MAX
    kernel_size: 3
    stride: 2
  }
}
layer {
  name: "fc6-new"
  type: "InnerProduct"
  bottom: "pool5"
  top: "fc6-new"
  param {
    lr_mult: 1
    decay_mult: 1
  }
  param {
    lr_mult: 1
    decay_mult: 0
  }
  inner_product_param {
    num_output: 4096
    weight_filler {
      type: "gaussian"
      std: 0.01
    }
  }
}
layer {
  name: "relu6"
  type: "ReLU"
  bottom: "fc6-new"
  top: "fc6-new"
}
layer {
  name: "drop6"
  type: "Dropout"
  bottom: "fc6-new"
  top: "fc6-new"
  dropout_param {
    dropout_ratio: 0.5
  }
}
layer {
  name: "fc7-new"
  type: "InnerProduct"
  bottom: "fc6-new"
  top: "fc7-new"
  param {
    lr_mult: 1
    decay_mult: 1
  }
  param {
    lr_mult: 1
    decay_mult: 0
  }
  inner_product_param {
    num_output: 4096
    weight_filler {
      type: "gaussian"
      std: 0.01
    }
    bias_filler {
      type: "constant"
      value: 0
    }
  }
}
layer {
  name: "relu7"
  type: "ReLU"
  bottom: "fc7-new"
  top: "fc7-new"
}
layer {
  name: "drop7"
  type: "Dropout"
  bottom: "fc7-new"
  top: "fc7-new"
  dropout_param {
    dropout_ratio: 0.5
  }
}
layer {
  name: "fc8-new"
  type: "InnerProduct"
  bottom: "fc7-new"
  top: "fc8-new"
  param {
    lr_mult: 1
    decay_mult: 1
  }
  param {
    lr_mult: 1
    decay_mult: 0
  }
  inner_product_param {
    num_output: 2352
    weight_filler {
      type: "gaussian"
      std: 0.01
    }
    bias_filler {
      type: "constant"
      value: 0
    }
  }
}
layer {
  name: "loss_sphere-new"
  type: "SoftmaxWithSphereLoss"
  bottom: "fc8-new"
  bottom: "label"
  top: "loss_sphere-new"
  softmax_with_sphere_loss_param {
    bandwidth: 2
    sigma: 2
  }
}
layer {
  name: "accuracy_sphere1"
  type: "AccuracySphere"
  bottom: "fc8-new"
  bottom: "label"
  top: "accuracy_sphere1"
  accuracy_sphere_param {
    tol_angle: 1
  }
}
layer {
  name: "accuracy_sphere2"
  type: "AccuracySphere"
  bottom: "fc8-new"
  bottom: "label"
  top: "accuracy_sphere2"
  accuracy_sphere_param {
    tol_angle: 2
  }
}
layer {
  name: "accuracy_sphere3"
  type: "AccuracySphere"
  bottom: "fc8-new"
  bottom: "label"
  top: "accuracy_sphere3"
  accuracy_sphere_param {
    tol_angle: 3
  }
}
layer {
  name: "accuracy_sphere4"
  type: "AccuracySphere"
  bottom: "fc8-new"
  bottom: "label"
  top: "accuracy_sphere4"
  accuracy_sphere_param {
    tol_angle: 4
  }
}
layer {
  name: "accuracy_sphere5"
  type: "AccuracySphere"
  bottom: "fc8-new"
  bottom: "label"
  top: "accuracy_sphere5"
  accuracy_sphere_param {
    tol_angle: 5
  }
}
layer {
  name: "accuracy_sphere6"
  type: "AccuracySphere"
  bottom: "fc8-new"
  bottom: "label"
  top: "accuracy_sphere6"
  accuracy_sphere_param {
    tol_angle: 6
  }
}
layer {
  name: "accuracy_sphere7"
  type: "AccuracySphere"
  bottom: "fc8-new"
  bottom: "label"
  top: "accuracy_sphere7"
  accuracy_sphere_param {
    tol_angle: 7
  }
}
layer {
  name: "accuracy_sphere8"
  type: "AccuracySphere"
  bottom: "fc8-new"
  bottom: "label"
  top: "accuracy_sphere8"
  accuracy_sphere_param {
    tol_angle: 8
  }
}
layer {
  name: "accuracy_sphere15"
  type: "AccuracySphere"
  bottom: "fc8-new"
  bottom: "label"
  top: "accuracy_sphere15"
  accuracy_sphere_param {
    tol_angle: 15
  }
}
I0924 12:17:15.298485  3086 layer_factory.hpp:77] Creating layer data
I0924 12:17:19.588495  3086 db_lmdb.cpp:35] Opened lmdb /media/cad/Elements1/viewpoint/img_train_lmdb
I0924 12:17:19.588603  3086 net.cpp:84] Creating Layer data
I0924 12:17:19.588657  3086 net.cpp:380] data -> data
I0924 12:17:19.588731  3086 net.cpp:380] data -> label
I0924 12:17:19.588774  3086 data_transformer.cpp:25] Loading mean file from: /home/cad/disk/linux/RenderForCNN-master/train/imagenet_mean.binaryproto
I0924 12:17:19.593464  3086 data_layer.cpp:45] output data size: 192,3,256,256
I0924 12:17:19.837189  3086 net.cpp:122] Setting up data
I0924 12:17:19.837244  3086 net.cpp:129] Top shape: 192 3 256 256 (37748736)
I0924 12:17:19.837262  3086 net.cpp:129] Top shape: 192 (192)
I0924 12:17:19.837271  3086 net.cpp:137] Memory required for data: 150995712
I0924 12:17:19.837285  3086 layer_factory.hpp:77] Creating layer label_data_1_split
I0924 12:17:19.837308  3086 net.cpp:84] Creating Layer label_data_1_split
I0924 12:17:19.837316  3086 net.cpp:406] label_data_1_split <- label
I0924 12:17:19.837332  3086 net.cpp:380] label_data_1_split -> label_data_1_split_0
I0924 12:17:19.837352  3086 net.cpp:380] label_data_1_split -> label_data_1_split_1
I0924 12:17:19.837374  3086 net.cpp:380] label_data_1_split -> label_data_1_split_2
I0924 12:17:19.837399  3086 net.cpp:380] label_data_1_split -> label_data_1_split_3
I0924 12:17:19.837414  3086 net.cpp:380] label_data_1_split -> label_data_1_split_4
I0924 12:17:19.837421  3086 net.cpp:380] label_data_1_split -> label_data_1_split_5
I0924 12:17:19.837429  3086 net.cpp:380] label_data_1_split -> label_data_1_split_6
I0924 12:17:19.837436  3086 net.cpp:380] label_data_1_split -> label_data_1_split_7
I0924 12:17:19.837451  3086 net.cpp:380] label_data_1_split -> label_data_1_split_8
I0924 12:17:19.837458  3086 net.cpp:380] label_data_1_split -> label_data_1_split_9
I0924 12:17:19.837568  3086 net.cpp:122] Setting up label_data_1_split
I0924 12:17:19.837575  3086 net.cpp:129] Top shape: 192 (192)
I0924 12:17:19.837580  3086 net.cpp:129] Top shape: 192 (192)
I0924 12:17:19.837585  3086 net.cpp:129] Top shape: 192 (192)
I0924 12:17:19.837590  3086 net.cpp:129] Top shape: 192 (192)
I0924 12:17:19.837595  3086 net.cpp:129] Top shape: 192 (192)
I0924 12:17:19.837599  3086 net.cpp:129] Top shape: 192 (192)
I0924 12:17:19.837604  3086 net.cpp:129] Top shape: 192 (192)
I0924 12:17:19.837608  3086 net.cpp:129] Top shape: 192 (192)
I0924 12:17:19.837613  3086 net.cpp:129] Top shape: 192 (192)
I0924 12:17:19.837618  3086 net.cpp:129] Top shape: 192 (192)
I0924 12:17:19.837622  3086 net.cpp:137] Memory required for data: 151003392
I0924 12:17:19.837627  3086 layer_factory.hpp:77] Creating layer conv1
I0924 12:17:19.837647  3086 net.cpp:84] Creating Layer conv1
I0924 12:17:19.837652  3086 net.cpp:406] conv1 <- data
I0924 12:17:19.837658  3086 net.cpp:380] conv1 -> conv1
I0924 12:17:19.838657  3086 net.cpp:122] Setting up conv1
I0924 12:17:19.838672  3086 net.cpp:129] Top shape: 192 96 62 62 (70852608)
I0924 12:17:19.838678  3086 net.cpp:137] Memory required for data: 434413824
I0924 12:17:19.838702  3086 layer_factory.hpp:77] Creating layer relu1
I0924 12:17:19.838719  3086 net.cpp:84] Creating Layer relu1
I0924 12:17:19.838724  3086 net.cpp:406] relu1 <- conv1
I0924 12:17:19.838731  3086 net.cpp:367] relu1 -> conv1 (in-place)
I0924 12:17:19.838744  3086 net.cpp:122] Setting up relu1
I0924 12:17:19.838750  3086 net.cpp:129] Top shape: 192 96 62 62 (70852608)
I0924 12:17:19.838754  3086 net.cpp:137] Memory required for data: 717824256
I0924 12:17:19.838759  3086 layer_factory.hpp:77] Creating layer pool1
I0924 12:17:19.838775  3086 net.cpp:84] Creating Layer pool1
I0924 12:17:19.838791  3086 net.cpp:406] pool1 <- conv1
I0924 12:17:19.838798  3086 net.cpp:380] pool1 -> pool1
I0924 12:17:19.838835  3086 net.cpp:122] Setting up pool1
I0924 12:17:19.838842  3086 net.cpp:129] Top shape: 192 96 31 31 (17713152)
I0924 12:17:19.838846  3086 net.cpp:137] Memory required for data: 788676864
I0924 12:17:19.838851  3086 layer_factory.hpp:77] Creating layer norm1
I0924 12:17:19.838858  3086 net.cpp:84] Creating Layer norm1
I0924 12:17:19.838862  3086 net.cpp:406] norm1 <- pool1
I0924 12:17:19.838868  3086 net.cpp:380] norm1 -> norm1
I0924 12:17:19.838899  3086 net.cpp:122] Setting up norm1
I0924 12:17:19.838906  3086 net.cpp:129] Top shape: 192 96 31 31 (17713152)
I0924 12:17:19.838910  3086 net.cpp:137] Memory required for data: 859529472
I0924 12:17:19.838915  3086 layer_factory.hpp:77] Creating layer conv2
I0924 12:17:19.838922  3086 net.cpp:84] Creating Layer conv2
I0924 12:17:19.838927  3086 net.cpp:406] conv2 <- norm1
I0924 12:17:19.838933  3086 net.cpp:380] conv2 -> conv2
I0924 12:17:19.851397  3086 net.cpp:122] Setting up conv2
I0924 12:17:19.851428  3086 net.cpp:129] Top shape: 192 256 31 31 (47235072)
I0924 12:17:19.851433  3086 net.cpp:137] Memory required for data: 1048469760
I0924 12:17:19.851449  3086 layer_factory.hpp:77] Creating layer relu2
I0924 12:17:19.851457  3086 net.cpp:84] Creating Layer relu2
I0924 12:17:19.851462  3086 net.cpp:406] relu2 <- conv2
I0924 12:17:19.851469  3086 net.cpp:367] relu2 -> conv2 (in-place)
I0924 12:17:19.851483  3086 net.cpp:122] Setting up relu2
I0924 12:17:19.851490  3086 net.cpp:129] Top shape: 192 256 31 31 (47235072)
I0924 12:17:19.851506  3086 net.cpp:137] Memory required for data: 1237410048
I0924 12:17:19.851527  3086 layer_factory.hpp:77] Creating layer pool2
I0924 12:17:19.851536  3086 net.cpp:84] Creating Layer pool2
I0924 12:17:19.851541  3086 net.cpp:406] pool2 <- conv2
I0924 12:17:19.851546  3086 net.cpp:380] pool2 -> pool2
I0924 12:17:19.851586  3086 net.cpp:122] Setting up pool2
I0924 12:17:19.851593  3086 net.cpp:129] Top shape: 192 256 15 15 (11059200)
I0924 12:17:19.851598  3086 net.cpp:137] Memory required for data: 1281646848
I0924 12:17:19.851603  3086 layer_factory.hpp:77] Creating layer norm2
I0924 12:17:19.851609  3086 net.cpp:84] Creating Layer norm2
I0924 12:17:19.851614  3086 net.cpp:406] norm2 <- pool2
I0924 12:17:19.851620  3086 net.cpp:380] norm2 -> norm2
I0924 12:17:19.851655  3086 net.cpp:122] Setting up norm2
I0924 12:17:19.851661  3086 net.cpp:129] Top shape: 192 256 15 15 (11059200)
I0924 12:17:19.851665  3086 net.cpp:137] Memory required for data: 1325883648
I0924 12:17:19.851670  3086 layer_factory.hpp:77] Creating layer conv3
I0924 12:17:19.851686  3086 net.cpp:84] Creating Layer conv3
I0924 12:17:19.851691  3086 net.cpp:406] conv3 <- norm2
I0924 12:17:19.851696  3086 net.cpp:380] conv3 -> conv3
I0924 12:17:19.853118  3086 net.cpp:122] Setting up conv3
I0924 12:17:19.853142  3086 net.cpp:129] Top shape: 192 384 15 15 (16588800)
I0924 12:17:19.853147  3086 net.cpp:137] Memory required for data: 1392238848
I0924 12:17:19.853163  3086 layer_factory.hpp:77] Creating layer relu3
I0924 12:17:19.853178  3086 net.cpp:84] Creating Layer relu3
I0924 12:17:19.853183  3086 net.cpp:406] relu3 <- conv3
I0924 12:17:19.853188  3086 net.cpp:367] relu3 -> conv3 (in-place)
I0924 12:17:19.853195  3086 net.cpp:122] Setting up relu3
I0924 12:17:19.853200  3086 net.cpp:129] Top shape: 192 384 15 15 (16588800)
I0924 12:17:19.853204  3086 net.cpp:137] Memory required for data: 1458594048
I0924 12:17:19.853209  3086 layer_factory.hpp:77] Creating layer conv4
I0924 12:17:19.853216  3086 net.cpp:84] Creating Layer conv4
I0924 12:17:19.853220  3086 net.cpp:406] conv4 <- conv3
I0924 12:17:19.853226  3086 net.cpp:380] conv4 -> conv4
I0924 12:17:19.854391  3086 net.cpp:122] Setting up conv4
I0924 12:17:19.854411  3086 net.cpp:129] Top shape: 192 384 15 15 (16588800)
I0924 12:17:19.854418  3086 net.cpp:137] Memory required for data: 1524949248
I0924 12:17:19.854429  3086 layer_factory.hpp:77] Creating layer relu4
I0924 12:17:19.854439  3086 net.cpp:84] Creating Layer relu4
I0924 12:17:19.854446  3086 net.cpp:406] relu4 <- conv4
I0924 12:17:19.854462  3086 net.cpp:367] relu4 -> conv4 (in-place)
I0924 12:17:19.854480  3086 net.cpp:122] Setting up relu4
I0924 12:17:19.854488  3086 net.cpp:129] Top shape: 192 384 15 15 (16588800)
I0924 12:17:19.854496  3086 net.cpp:137] Memory required for data: 1591304448
I0924 12:17:19.854502  3086 layer_factory.hpp:77] Creating layer conv5
I0924 12:17:19.854509  3086 net.cpp:84] Creating Layer conv5
I0924 12:17:19.854516  3086 net.cpp:406] conv5 <- conv4
I0924 12:17:19.854522  3086 net.cpp:380] conv5 -> conv5
I0924 12:17:19.855423  3086 net.cpp:122] Setting up conv5
I0924 12:17:19.855437  3086 net.cpp:129] Top shape: 192 256 15 15 (11059200)
I0924 12:17:19.855443  3086 net.cpp:137] Memory required for data: 1635541248
I0924 12:17:19.855458  3086 layer_factory.hpp:77] Creating layer relu5
I0924 12:17:19.855465  3086 net.cpp:84] Creating Layer relu5
I0924 12:17:19.855470  3086 net.cpp:406] relu5 <- conv5
I0924 12:17:19.855478  3086 net.cpp:367] relu5 -> conv5 (in-place)
I0924 12:17:19.855484  3086 net.cpp:122] Setting up relu5
I0924 12:17:19.855496  3086 net.cpp:129] Top shape: 192 256 15 15 (11059200)
I0924 12:17:19.855500  3086 net.cpp:137] Memory required for data: 1679778048
I0924 12:17:19.855505  3086 layer_factory.hpp:77] Creating layer pool5
I0924 12:17:19.855521  3086 net.cpp:84] Creating Layer pool5
I0924 12:17:19.855526  3086 net.cpp:406] pool5 <- conv5
I0924 12:17:19.855532  3086 net.cpp:380] pool5 -> pool5
I0924 12:17:19.855568  3086 net.cpp:122] Setting up pool5
I0924 12:17:19.855588  3086 net.cpp:129] Top shape: 192 256 7 7 (2408448)
I0924 12:17:19.855607  3086 net.cpp:137] Memory required for data: 1689411840
I0924 12:17:19.855612  3086 layer_factory.hpp:77] Creating layer fc6-new
I0924 12:17:19.855628  3086 net.cpp:84] Creating Layer fc6-new
I0924 12:17:19.855633  3086 net.cpp:406] fc6-new <- pool5
I0924 12:17:19.855638  3086 net.cpp:380] fc6-new -> fc6-new
I0924 12:17:20.340373  3086 net.cpp:122] Setting up fc6-new
I0924 12:17:20.340425  3086 net.cpp:129] Top shape: 192 4096 (786432)
I0924 12:17:20.340435  3086 net.cpp:137] Memory required for data: 1692557568
I0924 12:17:20.340451  3086 layer_factory.hpp:77] Creating layer relu6
I0924 12:17:20.340467  3086 net.cpp:84] Creating Layer relu6
I0924 12:17:20.340474  3086 net.cpp:406] relu6 <- fc6-new
I0924 12:17:20.340489  3086 net.cpp:367] relu6 -> fc6-new (in-place)
I0924 12:17:20.340499  3086 net.cpp:122] Setting up relu6
I0924 12:17:20.340505  3086 net.cpp:129] Top shape: 192 4096 (786432)
I0924 12:17:20.340509  3086 net.cpp:137] Memory required for data: 1695703296
I0924 12:17:20.340513  3086 layer_factory.hpp:77] Creating layer drop6
I0924 12:17:20.340520  3086 net.cpp:84] Creating Layer drop6
I0924 12:17:20.340525  3086 net.cpp:406] drop6 <- fc6-new
I0924 12:17:20.340531  3086 net.cpp:367] drop6 -> fc6-new (in-place)
I0924 12:17:20.340565  3086 net.cpp:122] Setting up drop6
I0924 12:17:20.340572  3086 net.cpp:129] Top shape: 192 4096 (786432)
I0924 12:17:20.340576  3086 net.cpp:137] Memory required for data: 1698849024
I0924 12:17:20.340580  3086 layer_factory.hpp:77] Creating layer fc7-new
I0924 12:17:20.340596  3086 net.cpp:84] Creating Layer fc7-new
I0924 12:17:20.340600  3086 net.cpp:406] fc7-new <- fc6-new
I0924 12:17:20.340607  3086 net.cpp:380] fc7-new -> fc7-new
I0924 12:17:20.486291  3086 net.cpp:122] Setting up fc7-new
I0924 12:17:20.486351  3086 net.cpp:129] Top shape: 192 4096 (786432)
I0924 12:17:20.486358  3086 net.cpp:137] Memory required for data: 1701994752
I0924 12:17:20.486373  3086 layer_factory.hpp:77] Creating layer relu7
I0924 12:17:20.486393  3086 net.cpp:84] Creating Layer relu7
I0924 12:17:20.486399  3086 net.cpp:406] relu7 <- fc7-new
I0924 12:17:20.486415  3086 net.cpp:367] relu7 -> fc7-new (in-place)
I0924 12:17:20.486430  3086 net.cpp:122] Setting up relu7
I0924 12:17:20.486435  3086 net.cpp:129] Top shape: 192 4096 (786432)
I0924 12:17:20.486439  3086 net.cpp:137] Memory required for data: 1705140480
I0924 12:17:20.486443  3086 layer_factory.hpp:77] Creating layer drop7
I0924 12:17:20.486450  3086 net.cpp:84] Creating Layer drop7
I0924 12:17:20.486454  3086 net.cpp:406] drop7 <- fc7-new
I0924 12:17:20.486459  3086 net.cpp:367] drop7 -> fc7-new (in-place)
I0924 12:17:20.486481  3086 net.cpp:122] Setting up drop7
I0924 12:17:20.486487  3086 net.cpp:129] Top shape: 192 4096 (786432)
I0924 12:17:20.486492  3086 net.cpp:137] Memory required for data: 1708286208
I0924 12:17:20.486496  3086 layer_factory.hpp:77] Creating layer fc8-new
I0924 12:17:20.486512  3086 net.cpp:84] Creating Layer fc8-new
I0924 12:17:20.486516  3086 net.cpp:406] fc8-new <- fc7-new
I0924 12:17:20.486522  3086 net.cpp:380] fc8-new -> fc8-new
I0924 12:17:20.570025  3086 net.cpp:122] Setting up fc8-new
I0924 12:17:20.570073  3086 net.cpp:129] Top shape: 192 2352 (451584)
I0924 12:17:20.570078  3086 net.cpp:137] Memory required for data: 1710092544
I0924 12:17:20.570096  3086 layer_factory.hpp:77] Creating layer fc8-new_fc8-new_0_split
I0924 12:17:20.570116  3086 net.cpp:84] Creating Layer fc8-new_fc8-new_0_split
I0924 12:17:20.570122  3086 net.cpp:406] fc8-new_fc8-new_0_split <- fc8-new
I0924 12:17:20.570138  3086 net.cpp:380] fc8-new_fc8-new_0_split -> fc8-new_fc8-new_0_split_0
I0924 12:17:20.570155  3086 net.cpp:380] fc8-new_fc8-new_0_split -> fc8-new_fc8-new_0_split_1
I0924 12:17:20.570170  3086 net.cpp:380] fc8-new_fc8-new_0_split -> fc8-new_fc8-new_0_split_2
I0924 12:17:20.570184  3086 net.cpp:380] fc8-new_fc8-new_0_split -> fc8-new_fc8-new_0_split_3
I0924 12:17:20.570191  3086 net.cpp:380] fc8-new_fc8-new_0_split -> fc8-new_fc8-new_0_split_4
I0924 12:17:20.570219  3086 net.cpp:380] fc8-new_fc8-new_0_split -> fc8-new_fc8-new_0_split_5
I0924 12:17:20.570250  3086 net.cpp:380] fc8-new_fc8-new_0_split -> fc8-new_fc8-new_0_split_6
I0924 12:17:20.570256  3086 net.cpp:380] fc8-new_fc8-new_0_split -> fc8-new_fc8-new_0_split_7
I0924 12:17:20.570282  3086 net.cpp:380] fc8-new_fc8-new_0_split -> fc8-new_fc8-new_0_split_8
I0924 12:17:20.570297  3086 net.cpp:380] fc8-new_fc8-new_0_split -> fc8-new_fc8-new_0_split_9
I0924 12:17:20.570387  3086 net.cpp:122] Setting up fc8-new_fc8-new_0_split
I0924 12:17:20.570394  3086 net.cpp:129] Top shape: 192 2352 (451584)
I0924 12:17:20.570399  3086 net.cpp:129] Top shape: 192 2352 (451584)
I0924 12:17:20.570403  3086 net.cpp:129] Top shape: 192 2352 (451584)
I0924 12:17:20.570408  3086 net.cpp:129] Top shape: 192 2352 (451584)
I0924 12:17:20.570412  3086 net.cpp:129] Top shape: 192 2352 (451584)
I0924 12:17:20.570417  3086 net.cpp:129] Top shape: 192 2352 (451584)
I0924 12:17:20.570421  3086 net.cpp:129] Top shape: 192 2352 (451584)
I0924 12:17:20.570426  3086 net.cpp:129] Top shape: 192 2352 (451584)
I0924 12:17:20.570431  3086 net.cpp:129] Top shape: 192 2352 (451584)
I0924 12:17:20.570436  3086 net.cpp:129] Top shape: 192 2352 (451584)
I0924 12:17:20.570439  3086 net.cpp:137] Memory required for data: 1728155904
I0924 12:17:20.570443  3086 layer_factory.hpp:77] Creating layer loss_sphere-new
I0924 12:17:20.570459  3086 net.cpp:84] Creating Layer loss_sphere-new
I0924 12:17:20.570463  3086 net.cpp:406] loss_sphere-new <- fc8-new_fc8-new_0_split_0
I0924 12:17:20.570469  3086 net.cpp:406] loss_sphere-new <- label_data_1_split_0
I0924 12:17:20.570475  3086 net.cpp:380] loss_sphere-new -> loss_sphere-new
I0924 12:17:20.570494  3086 layer_factory.hpp:77] Creating layer loss_sphere-new
I0924 12:17:20.571341  3086 net.cpp:122] Setting up loss_sphere-new
I0924 12:17:20.571360  3086 net.cpp:129] Top shape: (1)
I0924 12:17:20.571364  3086 net.cpp:132]     with loss weight 1
I0924 12:17:20.571393  3086 net.cpp:137] Memory required for data: 1728155908
I0924 12:17:20.571398  3086 layer_factory.hpp:77] Creating layer accuracy_sphere1
I0924 12:17:20.571405  3086 net.cpp:84] Creating Layer accuracy_sphere1
I0924 12:17:20.571409  3086 net.cpp:406] accuracy_sphere1 <- fc8-new_fc8-new_0_split_1
I0924 12:17:20.571415  3086 net.cpp:406] accuracy_sphere1 <- label_data_1_split_1
I0924 12:17:20.571422  3086 net.cpp:380] accuracy_sphere1 -> accuracy_sphere1
I0924 12:17:20.571451  3086 net.cpp:122] Setting up accuracy_sphere1
I0924 12:17:20.571458  3086 net.cpp:129] Top shape: 1 1 1 1 (1)
I0924 12:17:20.571462  3086 net.cpp:137] Memory required for data: 1728155912
I0924 12:17:20.571466  3086 layer_factory.hpp:77] Creating layer accuracy_sphere2
I0924 12:17:20.571472  3086 net.cpp:84] Creating Layer accuracy_sphere2
I0924 12:17:20.571476  3086 net.cpp:406] accuracy_sphere2 <- fc8-new_fc8-new_0_split_2
I0924 12:17:20.571482  3086 net.cpp:406] accuracy_sphere2 <- label_data_1_split_2
I0924 12:17:20.571488  3086 net.cpp:380] accuracy_sphere2 -> accuracy_sphere2
I0924 12:17:20.571517  3086 net.cpp:122] Setting up accuracy_sphere2
I0924 12:17:20.571523  3086 net.cpp:129] Top shape: 1 1 1 1 (1)
I0924 12:17:20.571527  3086 net.cpp:137] Memory required for data: 1728155916
I0924 12:17:20.571532  3086 layer_factory.hpp:77] Creating layer accuracy_sphere3
I0924 12:17:20.571537  3086 net.cpp:84] Creating Layer accuracy_sphere3
I0924 12:17:20.571542  3086 net.cpp:406] accuracy_sphere3 <- fc8-new_fc8-new_0_split_3
I0924 12:17:20.571547  3086 net.cpp:406] accuracy_sphere3 <- label_data_1_split_3
I0924 12:17:20.571552  3086 net.cpp:380] accuracy_sphere3 -> accuracy_sphere3
I0924 12:17:20.571574  3086 net.cpp:122] Setting up accuracy_sphere3
I0924 12:17:20.571580  3086 net.cpp:129] Top shape: 1 1 1 1 (1)
I0924 12:17:20.571584  3086 net.cpp:137] Memory required for data: 1728155920
I0924 12:17:20.571588  3086 layer_factory.hpp:77] Creating layer accuracy_sphere4
I0924 12:17:20.571594  3086 net.cpp:84] Creating Layer accuracy_sphere4
I0924 12:17:20.571599  3086 net.cpp:406] accuracy_sphere4 <- fc8-new_fc8-new_0_split_4
I0924 12:17:20.571607  3086 net.cpp:406] accuracy_sphere4 <- label_data_1_split_4
I0924 12:17:20.571625  3086 net.cpp:380] accuracy_sphere4 -> accuracy_sphere4
I0924 12:17:20.571653  3086 net.cpp:122] Setting up accuracy_sphere4
I0924 12:17:20.571660  3086 net.cpp:129] Top shape: 1 1 1 1 (1)
I0924 12:17:20.571663  3086 net.cpp:137] Memory required for data: 1728155924
I0924 12:17:20.571667  3086 layer_factory.hpp:77] Creating layer accuracy_sphere5
I0924 12:17:20.571673  3086 net.cpp:84] Creating Layer accuracy_sphere5
I0924 12:17:20.571677  3086 net.cpp:406] accuracy_sphere5 <- fc8-new_fc8-new_0_split_5
I0924 12:17:20.571682  3086 net.cpp:406] accuracy_sphere5 <- label_data_1_split_5
I0924 12:17:20.571688  3086 net.cpp:380] accuracy_sphere5 -> accuracy_sphere5
I0924 12:17:20.571714  3086 net.cpp:122] Setting up accuracy_sphere5
I0924 12:17:20.571720  3086 net.cpp:129] Top shape: 1 1 1 1 (1)
I0924 12:17:20.571724  3086 net.cpp:137] Memory required for data: 1728155928
I0924 12:17:20.571728  3086 layer_factory.hpp:77] Creating layer accuracy_sphere6
I0924 12:17:20.571733  3086 net.cpp:84] Creating Layer accuracy_sphere6
I0924 12:17:20.571738  3086 net.cpp:406] accuracy_sphere6 <- fc8-new_fc8-new_0_split_6
I0924 12:17:20.571743  3086 net.cpp:406] accuracy_sphere6 <- label_data_1_split_6
I0924 12:17:20.571748  3086 net.cpp:380] accuracy_sphere6 -> accuracy_sphere6
I0924 12:17:20.571774  3086 net.cpp:122] Setting up accuracy_sphere6
I0924 12:17:20.571780  3086 net.cpp:129] Top shape: 1 1 1 1 (1)
I0924 12:17:20.571784  3086 net.cpp:137] Memory required for data: 1728155932
I0924 12:17:20.571787  3086 layer_factory.hpp:77] Creating layer accuracy_sphere7
I0924 12:17:20.571805  3086 net.cpp:84] Creating Layer accuracy_sphere7
I0924 12:17:20.571808  3086 net.cpp:406] accuracy_sphere7 <- fc8-new_fc8-new_0_split_7
I0924 12:17:20.571813  3086 net.cpp:406] accuracy_sphere7 <- label_data_1_split_7
I0924 12:17:20.571820  3086 net.cpp:380] accuracy_sphere7 -> accuracy_sphere7
I0924 12:17:20.571844  3086 net.cpp:122] Setting up accuracy_sphere7
I0924 12:17:20.571851  3086 net.cpp:129] Top shape: 1 1 1 1 (1)
I0924 12:17:20.571854  3086 net.cpp:137] Memory required for data: 1728155936
I0924 12:17:20.571858  3086 layer_factory.hpp:77] Creating layer accuracy_sphere8
I0924 12:17:20.571864  3086 net.cpp:84] Creating Layer accuracy_sphere8
I0924 12:17:20.571868  3086 net.cpp:406] accuracy_sphere8 <- fc8-new_fc8-new_0_split_8
I0924 12:17:20.571873  3086 net.cpp:406] accuracy_sphere8 <- label_data_1_split_8
I0924 12:17:20.571879  3086 net.cpp:380] accuracy_sphere8 -> accuracy_sphere8
I0924 12:17:20.571905  3086 net.cpp:122] Setting up accuracy_sphere8
I0924 12:17:20.571910  3086 net.cpp:129] Top shape: 1 1 1 1 (1)
I0924 12:17:20.571914  3086 net.cpp:137] Memory required for data: 1728155940
I0924 12:17:20.571918  3086 layer_factory.hpp:77] Creating layer accuracy_sphere15
I0924 12:17:20.571924  3086 net.cpp:84] Creating Layer accuracy_sphere15
I0924 12:17:20.571929  3086 net.cpp:406] accuracy_sphere15 <- fc8-new_fc8-new_0_split_9
I0924 12:17:20.571934  3086 net.cpp:406] accuracy_sphere15 <- label_data_1_split_9
I0924 12:17:20.571939  3086 net.cpp:380] accuracy_sphere15 -> accuracy_sphere15
I0924 12:17:20.571965  3086 net.cpp:122] Setting up accuracy_sphere15
I0924 12:17:20.571971  3086 net.cpp:129] Top shape: 1 1 1 1 (1)
I0924 12:17:20.571975  3086 net.cpp:137] Memory required for data: 1728155944
I0924 12:17:20.571979  3086 net.cpp:200] accuracy_sphere15 does not need backward computation.
I0924 12:17:20.571987  3086 net.cpp:200] accuracy_sphere8 does not need backward computation.
I0924 12:17:20.571992  3086 net.cpp:200] accuracy_sphere7 does not need backward computation.
I0924 12:17:20.571996  3086 net.cpp:200] accuracy_sphere6 does not need backward computation.
…
